31403.onnx (onnx, 382244 bytes, 31 tensors)

net_layers.0.linear.bias f4 [61]
0	0xbe7391ea	-0.2378613
1	0xbec8d186	-0.39222354
2	0x3eb77343	0.35830125
3	0x3ec81854	0.3908106
4	0xbe959a7b	-0.29219422
5	0xbef7b5af	-0.483808
6	0x3e8ace2e	0.27110428
7	0x3f0a6bd1	0.54070765
8	0x3e6b5584	0.2298184
9	0x3e974894	0.2954756
10	0xbe9e71f9	-0.3094633
11	0x3e7929b2	0.24332312
12	0x3f013fb1	0.5048781
13	0x3e749ad3	0.23887186
14	0x3f0265c4	0.5093653
15	0xbefb60eb	-0.4909738
16	0xbd2e4a3f	-0.042551275
17	0xbefbbf4f	-0.49169394
18	0x3e817de6	0.25291365
19	0xbe584acc	-0.21122283
20	0x3d25958a	0.040425815
21	0x3e76fd2c	0.24120015
22	0x3f055e9b	0.5209748
23	0xbf0ff8e0	-0.5623913
24	0xbef9336f	-0.48672053
25	0x3dccba83	0.09996512
26	0x3e940e2a	0.28917056
27	0xbe009baf	-0.12559389
28	0xbe042a0b	-0.12906663
29	0xbeb62bf3	-0.35580406
30	0xbf069580	-0.5257187
31	0xbe9d36a5	-0.30705753
32	0x3e2ca8f0	0.1686132
33	0x3ce14334	0.027497865
34	0x3ebb1044	0.36535847
35	0x3f0a5992	0.54042923
36	0x3f022680	0.50839996
37	0x3edbfeae	0.42967743
38	0x3e819251	0.25306943
39	0x3ea1bd52	0.31589752
40	0x3ecdfbe1	0.4023123
41	0x3e331ff7	0.17492662
42	0x3eea5dfd	0.45774832
43	0xbf0b2659	-0.5435539
44	0xbe009ec5	-0.12560566
45	0xbe93654e	-0.28788227
46	0x3e7a70ac	0.24457043
47	0xbeba4c6d	-0.36386433
48	0xbf0a19a9	-0.53945404
49	0xbed8c618	-0.42338634
50	0xbf00d7f0	-0.50329494
51	0x3eded82d	0.43524304
52	0x3eea0fcb	0.45715174
53	0x3ee57924	0.44818985
54	0x3eb20457	0.34768936
55	0xbe8fcb23	-0.2808467
56	0x3e0bb66d	0.13643809
57	0x3ece670e	0.40313
58	0x3e7ca41b	0.24671976
59	0x3e815162	0.25257403
60	0x3eb49ab6	0.35274285

net_layers.1.linear_1.bias f4 [61]
0	0x3dfe9b9f	0.12432026
1	0x3c96d7fc	0.018413536
2	0x3dbaf3cc	0.09128532
3	0x3d502bdc	0.050823078
4	0xbcec7710	-0.028865367
5	0xbd84ee58	-0.06490773
6	0x3e02c48c	0.12770289
7	0xbdc40fd2	-0.0957333
8	0xbd530d08	-0.0515261
9	0xbd33044a	-0.043705262
10	0xbde40173	-0.11133089
11	0x3d091e67	0.03347626
12	0x3daaba16	0.08336274
13	0x3d1b6394	0.037936762
14	0x3c3b3c02	0.011427881
15	0x3d3e387e	0.046440594
16	0x3bf76862	0.007550285
17	0x37309b7f	1.0526622e-05
18	0xbda4074d	-0.08009205
19	0x3d56d63e	0.05245041
20	0xbe069aa3	-0.13144927
21	0x3d981d16	0.07427423
22	0x3dcd9e97	0.10040014
23	0x3ccaea2b	0.024769863
24	0xbd6d1c5b	-0.05788837
25	0x3ba017d1	0.0048856516
26	0xbd9e5eab	-0.077329
27	0x3c9231b8	0.017845973
28	0x3d02ed48	0.03196457
29	0xbc9f4bf1	-0.019445391
30	0xbdecc67e	-0.11561297
31	0xbd925087	-0.071442656
32	0x3dd84480	0.1055994
33	0xbd93026b	-0.071781956
34	0xbdfec14b	-0.124392115
35	0xbc4081d7	-0.011749706
36	0x3d61ebc1	0.055156473
37	0x3cab1af4	0.020886876
38	0xbdaa5186	-0.083163306
39	0x3c650ad0	0.013979629
40	0xbd262f7f	-0.04057264
41	0xbdc35d02	-0.09539224
42	0x3df7bfcf	0.120971315
43	0xbbc750e0	-0.006082639
44	0xbdb0576c	-0.086104244
45	0x3dcd013d	0.10010002
46	0x3d8fc3f4	0.07019797
47	0xbd22ae28	-0.03971687
48	0x3e047d8e	0.1293852
49	0x3c7d484f	0.015459134
50	0x3dc3c65f	0.09559321
51	0xbd26949e	-0.040669076
52	0x3db281d9	0.08716173
53	0x3d6e9c87	0.058254745
54	0xbdf436d5	-0.11924521
55	0xbde53771	-0.11192215
56	0xbdb3b480	-0.08774662
57	0xbd05037f	-0.032474037
58	0x3db18bbc	0.0866923
59	0xbde449b8	-0.11146873
60	0x3d66c2da	0.05633817

net_layers.1.linear_2.bias f4 [61]
0	0x3dc0154d	0.09379063
1	0x3dae64bb	0.085153066
2	0x3d8e43c8	0.06946522
3	0x3d7d7c65	0.06188621
4	0x3d39eb17	0.045390215
5	0x3d719680	0.05898142
6	0x3d741e83	0.05959941
7	0x3d86710e	0.06564532
8	0x3dc68916	0.09694116
9	0x3dc374c5	0.095437564
10	0xbdbf8ddf	-0.09353232
11	0x3d896663	0.06708982
12	0x3d3ed27d	0.046587456
13	0x3d8b0dc3	0.06789734
14	0x3d0200be	0.03173899
15	0x3de0efff	0.109832756
16	0xbd155024	-0.03645338
17	0x3d9535dd	0.07285664
18	0xbd4ba16b	-0.049714487
19	0xbe02f8bb	-0.12790196
20	0x3dafe18f	0.08587944
21	0xbd5d6922	-0.05405534
22	0xbd7b40b7	-0.061341014
23	0x3dd82b81	0.10555173
24	0x3c88dc51	0.016706618
25	0x3db23608	0.08701712
26	0xbcd4c112	-0.02597097
27	0x3dab2d09	0.08358199
28	0x3ddc6c11	0.107627995
29	0x3d9b3fdf	0.07580542
30	0x3d00c968	0.031442076
31	0xbde7bb21	-0.11314989
32	0x3d1ba6b1	0.038000766
33	0x3dfbcc30	0.12294805
34	0x3b93ebda	0.0045141997
35	0x3e07da33	0.1326683
36	0xbd845fd0	-0.06463587
37	0xbcad32f8	-0.021142468
38	0xbcbca81c	-0.02302938
39	0x3d177c2e	0.03698366
40	0x3d40ff93	0.047118735
41	0x3dd4383c	0.10362288
42	0xbc9c2c33	-0.019064045
43	0xbdcaa7fe	-0.09895323
44	0x3d502545	0.050816793
45	0x3dd3d61b	0.10343572
46	0x3d7b15de	0.06130015
47	0xbdadf35b	-0.08493682
48	0xbdb5252b	-0.0884498
49	0xbd8ee5d1	-0.06977428
50	0xbb1ef970	-0.0024257563
51	0x399d1b42	0.00029965682
52	0xbcae2073	-0.021255707
53	0x3dc3d1da	0.095615104
54	0xbd900220	-0.07031655
55	0xbd7e0479	-0.062015984
56	0x3d85de0b	0.06536492
57	0x3ab030f1	0.001344232
58	0xbdba66ba	-0.09101625
59	0x3d44e155	0.048066456
60	0x3d0fd9a6	0.035119675

net_layers.2.linear_1.bias f4 [61]
0	0xbb6beef0	-0.0036000572
1	0xbc87c3e3	-0.016572898
2	0x3e00d378	0.12580669
3	0x3c58365f	0.013196557
4	0xbda5c31c	-0.08093855
5	0xbce03b44	-0.02737201
6	0xbc8c9a42	-0.0171634
7	0x3d490fdf	0.0490874
8	0x3d094802	0.033515938
9	0x3d3d5cf4	0.046231225
10	0x3dedfae8	0.11620122
11	0xbd306fbc	-0.04307531
12	0xbcf28ac9	-0.029607194
13	0xbe047834	-0.12936479
14	0x3c7e7d04	0.015532736
15	0x3de08246	0.10962348
16	0xbda56bd6	-0.08077209
17	0xba82d333	-0.0009981155
18	0x3d2893f8	0.04115674
19	0x3df66fdd	0.12033055
20	0x3df32b5e	0.11873506
21	0xbc40095a	-0.01172098
22	0x3df6d332	0.12052001
23	0xbcc82425	-0.024431298
24	0x3de69e6b	0.112606846
25	0x3c824b5b	0.015905073
26	0x3da7fc68	0.082024395
27	0x3ddc9269	0.10770113
28	0x3db9e2c1	0.09076453
29	0x3cb4709b	0.02202635
30	0x3cc2fa24	0.023800917
31	0xbb72c246	-0.0037042066
32	0xbd1bd913	-0.038048815
33	0x3d1a1bb5	0.03762408
34	0x3da4b041	0.0804143
35	0xbddeae97	-0.10873144
36	0xbd0960de	-0.033539645
37	0x3dd33c87	0.10314279
38	0xbd806738	-0.062696874
39	0x3b2a7eaf	0.002601545
40	0xbcb6d9b6	-0.02232061
41	0xbc90fda6	-0.017699074
42	0x3c6f54b8	0.014607601
43	0xbdabf31d	-0.083959796
44	0xbd42a25a	-0.04751811
45	0x3dc9b362	0.09848668
46	0xbdbc5c73	-0.09197321
47	0xba7deaed	-0.0009686191
48	0xbdc8a785	-0.09797577
49	0xbc3b6195	-0.01143684
50	0x3d4b3af1	0.049616758
51	0xbd4d72f0	-0.05015844
52	0x3da0f33a	0.07858892
53	0x3dc26360	0.094916105
54	0xbd98067c	-0.07423112
55	0xbdb7b072	-0.08969201
56	0xbc7c4c5e	-0.015399067
57	0x3b1186b4	0.0022205533
58	0x3a7abb37	0.00095646403
59	0x3d9b68b5	0.07588331
60	0xbdcb3a7b	-0.09923264

net_layers.2.linear_2.bias f4 [61]
0	0xbdc5783d	-0.09642074
1	0x3d0e43a9	0.034732495
2	0xbd320c97	-0.043469038
3	0x3ccc6cb0	0.02495417
4	0x3da7fe5a	0.082028106
5	0xbcf7c2a1	-0.030244173
6	0xbdc305ea	-0.095226124
7	0x3dbee10a	0.093202665
8	0x3d09737d	0.033557404
9	0x3d444c68	0.04792443
10	0x3c32fbd0	0.010924295
11	0xbd1addac	-0.03780906
12	0x3d90e38d	0.07074652
13	0x3d1088b3	0.035286617
14	0xbdffa1ed	-0.12482057
15	0xbe044313	-0.12916212
16	0xbd80842a	-0.06275208
17	0x3d54b962	0.051934607
18	0xbdf49a3b	-0.119434796
19	0x3d492f22	0.049117215
20	0xbca3018b	-0.019898197
21	0x3ce71934	0.02821026
22	0xbc973593	-0.018458163
23	0xbdd31dd6	-0.10308425
24	0xbceea4b9	-0.02913128
25	0x3da6c47d	0.08142946
26	0xbe030948	-0.1279651
27	0x3d7ad48a	0.06123785
28	0x3dca07b8	0.098647535
29	0xbdf836c2	-0.12119819
30	0x3dbc1841	0.091843136
31	0xbde54beb	-0.11196121
32	0x3d7cd623	0.061727654
33	0xbd088ce6	-0.033337496
34	0x3c81cc96	0.015844624
35	0x3c627a8b	0.013823162
36	0x3dfd6365	0.123724736
37	0x3d74ff98	0.059814066
38	0xbdd6d9e1	-0.10490776
39	0x3d112d1b	0.035443407
40	0xbdb5ff79	-0.08886618
41	0x3d03b398	0.032153696
42	0xbdc0e4e4	-0.094186574
43	0xbde4c831	-0.11170996
44	0x3df95cc3	0.12175896
45	0xbdfda06b	-0.12384113
46	0x3d19379d	0.037406553
47	0xbc9a5992	-0.018841539
48	0x3df1d8dd	0.118089415
49	0xbddd1f5a	-0.107969955
50	0xbc45a3c3	-0.01206297
51	0x3d50aca4	0.050945893
52	0xbe0978c6	-0.13424978
53	0x3dd7ed6d	0.10543332
54	0xbda81378	-0.08206838
55	0x3d2cdbbf	0.042201754
56	0x3d9614d4	0.073281914
57	0x3c1b8d33	0.009494114
58	0x3cd11cab	0.025526365
59	0xbba96cd4	-0.005170444
60	0x3de6ac52	0.11263336

net_layers.3.linear_1.bias f4 [61]
0	0x3d29d1e5	0.041459937
1	0x3d9b7a4b	0.07591685
2	0x3cedc2bd	0.029023523
3	0xbd202f20	-0.039107442
4	0xbc71db7e	-0.014761804
5	0xbd7a8364	-0.06116046
6	0xbcacb2fd	-0.021081442
7	0x3d32445c	0.043522224
8	0x3d81ae71	0.063321
9	0x3dc2c3a3	0.09509971
10	0x3d8317cf	0.064010255
11	0xbd44b75a	-0.04802642
12	0xbd9fd899	-0.078049846
13	0x3c9a9214	0.018868484
14	0x3bd0b1f6	0.006368871
15	0x3cfe0bdf	0.03101152
16	0xbe007c43	-0.12547402
17	0xbd94bde1	-0.07262779
18	0xbdf89c0d	-0.12139139
19	0xbd8bbff4	-0.068237215
20	0x3d641478	0.055683583
21	0x3bbd874d	0.0057839514
22	0x3d1fe1ed	0.03903382
23	0xbdb30a46	-0.08742194
24	0x3d46011a	0.048340894
25	0x3d23f854	0.040031746
26	0x3cd1955b	0.025583914
27	0xbb02d117	-0.0019961053
28	0xbde004dc	-0.10938427
29	0x3cc03429	0.023462372
30	0x3dc02d81	0.09383679
31	0xbb8bc5a5	-0.0042655044
32	0x3ca21c07	0.019788755
33	0x3cf7dc25	0.03025634
34	0xbd84b324	-0.06479481
35	0x3d788a8d	0.060679007
36	0x3de4e957	0.111773185
37	0x3d7d0a85	0.06177761
38	0xbd8f68e7	-0.070024304
39	0x3d6537b0	0.05596131
40	0xb85e675f	-5.3025196e-05
41	0xbccc7579	-0.02495836
42	0xbd275628	-0.04085365
43	0x3de12fbf	0.10995435
44	0xbdaadcde	-0.08342908
45	0xbd9c5be7	-0.076347165
46	0xbd489303	-0.048968326
47	0x3ba87ef1	0.0051420857
48	0x3d4920f5	0.049103696
49	0xbd6ff9ed	-0.058587957
50	0x3d31fbfa	0.043453194
51	0xbdeb3a83	-0.114857696
52	0xbcc7d648	-0.02439417
53	0x3dd8e5f8	0.10590738
54	0xbcf97fa7	-0.030456377
55	0xbcaae4de	-0.020861086
56	0x3dd438d0	0.103623986
57	0x3beb1c4e	0.007175005
58	0xbcbcfc1a	-0.02306943
59	0x3db3a7da	0.087722495
60	0xbdbda389	-0.092597075

net_layers.3.linear_2.bias f4 [61]
0	0xbd9947f3	-0.07484426
1	0x3deeb907	0.11656385
2	0x3c1525dd	0.009103266
3	0x3dabd9e3	0.08391168
4	0x3b6a0e47	0.0035714076
5	0x3df4e6d6	0.11958091
6	0x3d27a485	0.040928382
7	0x3dc15c31	0.09441412
8	0x3c84a680	0.016192675
9	0x3d07e5c8	0.03317812
10	0x3db1592e	0.08659588
11	0xbd95a49f	-0.073067896
12	0x3db5ab4e	0.088705644
13	0x3ddd688a	0.10810955
14	0x3ce58be1	0.028020801
15	0xbd8a5812	-0.06755079
16	0x3da0b669	0.07847292
17	0x3b399929	0.002832005
18	0x3ab986a3	0.0014154505
19	0x3df6b485	0.1204615
20	0xbd14eb75	-0.03635736
21	0xbd1f03a7	-0.038821843
22	0x3d07ca10	0.033151686
23	0x3bc19f3a	0.005908874
24	0xbc9c98c7	-0.019115819
25	0xbdbc2759	-0.091871925
26	0x3da60da5	0.08108071
27	0xbc913b6a	-0.017728526
28	0x3df7605c	0.12078926
29	0x3cba29c8	0.022725001
30	0x3d5d2893	0.053993773
31	0xbca7202c	-0.020401083
32	0xbdacfe4e	-0.08446942
33	0xbc62a927	-0.013834274
34	0x3c8d4101	0.01724291
35	0xbd05f722	-0.032706387
36	0x3d020f26	0.031752728
37	0xbd1975ba	-0.03746579
38	0xbcb10d2d	-0.021612728
39	0xbda50f0a	-0.08059509
40	0xbc098d40	-0.008395493
41	0xbe073f46	-0.1320773
42	0xbc878646	-0.016543519
43	0xbbbf31f8	-0.005834814
44	0xbd2879bd	-0.041131724
45	0x3deaa27a	0.11456771
46	0xbd57d815	-0.052696306
47	0x3b07741d	0.0020668574
48	0x3d44a394	0.048007563
49	0x3db32c44	0.087486774
50	0x3dd776f7	0.105207376
51	0x3d45730f	0.04820543
52	0x3c851dac	0.0162495
53	0xbc8faa8c	-0.017537378
54	0xbdd7a7ec	-0.105300754
55	0xbd39236d	-0.0451998
56	0xbdbeba33	-0.093128584
57	0xbce2c748	-0.027682915
58	0xbd8b9e0f	-0.06817257
59	0xbd53b6ca	-0.051687993
60	0x3d89f106	0.06735425

net_layers.4.linear_1.bias f4 [61]
0	0x3d500764	0.0507883
1	0xbdf3a1b9	-0.118960805
2	0x3cd435c5	0.025904546
3	0x3c996221	0.01872355
4	0x3d1b79ba	0.037957884
5	0x3d538e50	0.05164939
6	0xbdcc519b	-0.099765025
7	0xbe0231a1	-0.12714244
8	0x3e01aa76	0.12662682
9	0xbdf31d03	-0.11870768
10	0x3dabee72	0.08395089
11	0x3d3fd7ba	0.046836592
12	0xbdb2b25b	-0.08725425
13	0x3da229c6	0.07918124
14	0x3dc4c232	0.09607352
15	0xbc24aaac	-0.010050457
16	0xbdd894db	-0.10575267
17	0x3de44804	0.111465484
18	0x3d13e888	0.03611043
19	0xbd7cd82e	-0.061729603
20	0xbc526476	-0.012841335
21	0xbbb5c282	-0.005546869
22	0xbded1965	-0.11577109
23	0xbe022caa	-0.1271235
24	0xbb155d4d	-0.0022791207
25	0x39636d39	0.00021689096
26	0x3d28a3fc	0.041172013
27	0x3dba0916	0.09083764
28	0x3c331b65	0.010931824
29	0xbd0569e7	-0.0325717
30	0xbd567740	-0.05235982
31	0xbce7db48	-0.028302804
32	0xbda0002a	-0.07812531
33	0x393ba7e8	0.0001789626
34	0x3d6f8b59	0.0584825
35	0xbdf9c5fc	-0.12195966
36	0x3d1f28f4	0.038857415
37	0xbdf48149	-0.11938722
38	0xbcb16d5e	-0.021658596
39	0x3da5732d	0.08078609
40	0xbdd9f4c5	-0.10642389
41	0xbc3bc761	-0.01146111
42	0x3da4376c	0.080183834
43	0x3d98f438	0.07468456
44	0x3d34348e	0.043995433
45	0x3d3ba570	0.04581207
46	0xbdfc0387	-0.1230536
47	0x3de3c6b5	0.11121885
48	0x3d068055	0.03283723
49	0xbd7d1460	-0.06178701
50	0xbc89b240	-0.016808629
51	0xbd6f620f	-0.058443125
52	0x3dbca949	0.09211976
53	0x3d63ea27	0.055643227
54	0xbd7e56f4	-0.062094644
55	0xbdf3fabf	-0.119130604
56	0x3cbec1a9	0.023285704
57	0xbd6de1d8	-0.05807671
58	0x3cf44f83	0.02982307
59	0xbd7cb2be	-0.0616939
60	0x3ccb8381	0.02484298

net_layers.4.linear_2.bias f4 [61]
0	0xbbac23e1	-0.0052533005
1	0xbdde699f	-0.108599894
2	0x3decf311	0.11569799
3	0xbd45d7b6	-0.04830142
4	0xbd61957c	-0.0550742
5	0x3cef450f	0.029207734
6	0x3d630025	0.05542006
7	0xbd7df5d9	-0.062002037
8	0xbd7a014b	-0.06103639
9	0xbdbb9395	-0.091590084
10	0xbc0c068a	-0.008546481
11	0x3d80596b	0.06267055
12	0xbddc1a7c	-0.10747239
13	0xbdb12f1e	-0.08651565
14	0xbaf99e82	-0.0019044431
15	0xbdc09c96	-0.094048664
16	0x3deaba14	0.11461273
17	0x3d95341d	0.072853304
18	0x3d9f8f7a	0.07791038
19	0xbdcb721e	-0.099338755
20	0x3d4a6c5f	0.049419757
21	0x3d902eec	0.070402
22	0xbdd43825	-0.10362271
23	0x3d996534	0.07490006
24	0x3ddf89bd	0.10914943
25	0x3d02486c	0.031807348
26	0x3daa65ac	0.083201736
27	0xb97b34ee	-0.00023956943
28	0x3da5c667	0.08094483
29	0x3d25f5c3	0.04051758
30	0x3c30d7a2	0.010793598
31	0xbdb311f0	-0.08743656
32	0x3d3fb788	0.04680589
33	0xbd40eedd	-0.047102798
34	0xbda1e730	-0.07905424
35	0xbcc029ab	-0.023457369
36	0x3ce07723	0.027400559
37	0xbddf41e9	-0.10901243
38	0x3d9688c9	0.073503084
39	0xbdc8d214	-0.09805694
40	0xbd9d70d9	-0.076875396
41	0xbcd51865	-0.026012609
42	0x3d0a969d	0.033835042
43	0xbb75c011	-0.0037498514
44	0x3de781ce	0.11304055
45	0x3b846192	0.0040399516
46	0xbcddfbea	-0.027097661
47	0xbdb3b818	-0.087753475
48	0xbb644ffc	-0.0034837713
49	0xbb5262f0	-0.0032102428
50	0x3c321c1b	0.010870959
51	0x3c483429	0.012219467
52	0x3d66bbb8	0.056331366
53	0x3d2eb8e5	0.042656798
54	0xbd7d2a60	-0.06180799
55	0xbdb1f3db	-0.0868909
56	0xbc0be7cf	-0.008539154
57	0xbd5eeda0	-0.054425836
58	0xbc7fbc6a	-0.015608886
59	0xbdcf8f34	-0.10134736
60	0xbdba8316	-0.09107034

net_layers.5.linear_1.bias f4 [61]
0	0xbdda55b0	-0.10660875
1	0x3d2be62f	0.041967567
2	0xbd0f234f	-0.034945782
3	0xbde07b87	-0.10961061
4	0xbcc83131	-0.024437519
5	0xbd1c7811	-0.03820044
6	0x3d380725	0.04492869
7	0xbd89434b	-0.06702288
8	0xbdf25da9	-0.118342705
9	0x3c3a4091	0.011367933
10	0x3db915b6	0.09037344
11	0xbd727ea9	-0.059202824
12	0x3cb58986	0.022160303
13	0xbd879117	-0.066194706
14	0xbdf4b6f4	-0.11948958
15	0x3dad05bd	0.0844836
16	0x3dc7b0df	0.09750532
17	0xbdcbbf0b	-0.09948548
18	0xbda68c19	-0.0813219
19	0xbda657e5	-0.08122233
20	0xbd91cf6a	-0.07119639
21	0x3d041d89	0.03225473
22	0xbcffccb1	-0.031225534
23	0x3da9d91e	0.08293365
24	0x3cdae265	0.026719281
25	0xbd7784b9	-0.06042931
26	0x3d075eef	0.03304952
27	0x3de557de	0.111984
28	0xbdaa9a6f	-0.08330237
29	0xbd192f98	-0.037398905
30	0x3dd7a77d	0.10529993
31	0xbd9a2fb0	-0.07528627
32	0x3c927d43	0.017881995
33	0x3ca4afeb	0.020103415
34	0x3d99dddc	0.075130194
35	0x3ddafc6e	0.106926784
36	0x3ceac57d	0.028658623
37	0xbc99c0a4	-0.018768616
38	0x3d475712	0.04866702
39	0x3dabc7fd	0.08387754
40	0x3b031f5a	0.00200077
41	0x3d817d57	0.06322735
42	0xbdd517a8	-0.10404903
43	0x3ddf864e	0.109142885
44	0x3d0d4ced	0.03449719
45	0xbd6b26e1	-0.057410125
46	0xbd86a7ec	-0.06574997
47	0x3d2e7026	0.04258742
48	0x3e023586	0.1271573
49	0x3b48e25a	0.0030652494
50	0x3d3e6d19	0.046490762
51	0xbda57c9a	-0.080804065
52	0xbdeddee9	-0.11614782
53	0x3deea4a2	0.11652495
54	0x3dd97850	0.10618651
55	0xbd9203c9	-0.07129628
56	0x3df90655	0.12159411
57	0x3e0043fa	0.12525931
58	0xbd6680b8	-0.0562751
59	0xbe013f47	-0.12621795
60	0x3db0a2e9	0.08624823

net_layers.5.linear_2.bias f4 [61]
0	0x3da995e2	0.08280541
1	0xbdcb0181	-0.09912396
2	0x3a3838df	0.00070275174
3	0x3d90e1c2	0.0707431
4	0xbdce68cd	-0.10078583
5	0xbd900339	-0.07031865
6	0x3d5099ef	0.050928053
7	0xbd4390d3	-0.047745537
8	0x3c1fc0b5	0.009750535
9	0xbde03176	-0.10946934
10	0x3b4be112	0.0031109494
11	0x3e01c8a2	0.12674192
12	0xbd692099	-0.056915853
13	0x3d6c46f3	0.05768485
14	0xbe02f872	-0.12790087
15	0x3d14bd25	0.036313195
16	0x3d99eb2e	0.0751556
17	0x3c6fd672	0.01463853
18	0x3dbc9a64	0.09209135
19	0xbdc90d75	-0.0981702
20	0xbd8446e0	-0.06458831
21	0xbd32fb2f	-0.04369658
22	0x3d5d8e63	0.05409087
23	0x3d432903	0.047646534
24	0x3dc6888f	0.09694015
25	0xbc96f368	-0.018426612
26	0xbdacbfae	-0.084349975
27	0x3dad525b	0.08462974
28	0xbc7df08b	-0.015499244
29	0x3cda38a8	0.026638344
30	0x3c2d35e4	0.010571931
31	0x3da228a2	0.07917906
32	0xbce0149d	-0.02735358
33	0xbdc7f874	-0.097641855
34	0xbdbc5b10	-0.09197056
35	0x3d56a830	0.05240649
36	0x3d9fea0e	0.07808314
37	0xbd1dd0a1	-0.038529042
38	0xbce158f2	-0.027508233
39	0x3bb3f76f	0.005492143
40	0xbd181d05	-0.03713705
41	0xbe00e579	-0.12587537
42	0x3dcf1393	0.10111155
43	0x3cf1389a	0.029445935
44	0x3c33fec1	0.010986031
45	0x3de39a78	0.11113447
46	0x3da2712b	0.07931741
47	0x3d9f9210	0.07791531
48	0x3dc8d8f7	0.09807008
49	0xbce60467	-0.028078271
50	0x3dad4538	0.08460468
51	0x3d734c2c	0.059398815
52	0xbd57d899	-0.052696798
53	0x3d2faf58	0.04289183
54	0x3de32b5a	0.11092253
55	0xbe0c61e9	-0.13709225
56	0xbdcf053f	-0.101084225
57	0xbdec85fe	-0.115489945
58	0xbc6fd616	-0.014638444
59	0xbd6feda8	-0.058576256
60	0xbd3049d6	-0.043039165

net_layers.6.linear_1.bias f4 [61]
0	0x3c963277	0.01833461
1	0xbe0846de	-0.13308284
2	0x3c470de7	0.012149311
3	0x3e0c52e8	0.13703501
4	0xbdc3e30d	-0.09564791
5	0x3cd4d3b9	0.025979863
6	0xbc1223b9	-0.00891965
7	0xbdef4362	-0.11682774
8	0xbda0810c	-0.07837114
9	0x3d55e716	0.052222334
10	0xbe056657	-0.13027321
11	0xbcb8d042	-0.022560243
12	0xbbe00d97	-0.0068375575
13	0xbdb67867	-0.08909684
14	0x3d8383aa	0.06421597
15	0x3dfc410c	0.12317094
16	0x3dddc0ab	0.10827764
17	0xbd8c9a30	-0.068653464
18	0xbc679724	-0.014135156
19	0xbd5503aa	-0.052005447
20	0x3d6b1167	0.057389643
21	0x3dc75f9a	0.097350314
22	0xbd427723	-0.0474769
23	0x3cf1e1c0	0.029526591
24	0xbd2c9b0c	-0.04214005
25	0xbdfd3501	-0.12363625
26	0x3d7fb823	0.062431466
27	0x3d9b6675	0.075879015
28	0xbca68adc	-0.020329885
29	0x3d77dfa9	0.060516033
30	0xbc9ae57e	-0.018908259
31	0x3d5e2412	0.054233618
32	0xbdf40551	-0.119150765
33	0xbd472a5c	-0.04862438
34	0x3c9eda07	0.019391073
35	0x3d4b222d	0.04959314
36	0xbdd9df1b	-0.10638257
37	0xbdd269c8	-0.102740824
38	0x3de171a5	0.11008004
39	0x3d5ec013	0.054382395
40	0xbdd8c607	-0.10584646
41	0x3e069ba4	0.1314531
42	0x399430dd	0.00028265166
43	0x3da33edd	0.079709746
44	0xbd80f0d6	-0.06295936
45	0xbdaea441	-0.08527423
46	0xbdd5a3cf	-0.10431635
47	0x3d010fd5	0.03150924
48	0xbdc89c9b	-0.09795495
49	0xbd3b709b	-0.045761686
50	0xbc39d468	-0.0113421455
51	0x3c12caaf	0.008959456
52	0x3df70af6	0.120626375
53	0x3d4ebbe3	0.05047215
54	0xbe0565b4	-0.13027078
55	0xbdca8095	-0.09887806
56	0xbd99f92e	-0.075182304
57	0x3c9e5902	0.019329552
58	0x3dc636b2	0.09678401
59	0x3d64756d	0.05577605
60	0x3d184630	0.03717631

net_layers.6.linear_2.bias f4 [61]
0	0xbcb69ed9	-0.022292541
1	0x3dbd9e15	0.092586674
2	0xbdecd63b	-0.11564299
3	0x3d90acc3	0.07064202
4	0x3cdbdaf3	0.026837802
5	0x3c09a776	0.008401742
6	0xbd116e79	-0.035505746
7	0xbdcfdf0d	-0.101499654
8	0x3e011777	0.12606607
9	0x3dfa7fa7	0.12231379
10	0xbdebd53a	-0.11515279
11	0x3dcd0ad7	0.10011833
12	0xbd4ca8c0	-0.04996562
13	0xbd617ce3	-0.055050742
14	0x3d8ad5a1	0.06779028
15	0xbd5cba4e	-0.05388861
16	0x3c853354	0.016259827
17	0xbd6133b8	-0.054980963
18	0x3d37d91b	0.044884782
19	0xbd95d495	-0.073159374
20	0xbcf3594f	-0.029705672
21	0xbd38d219	-0.04512224
22	0xb6a6f4fd	-4.975706e-06
23	0x3db2eb31	0.087362655
24	0xbd8f7402	-0.070045486
25	0x3dac771d	0.084211566
26	0xbdea454a	-0.11438997
27	0x3d25dc5c	0.040493354
28	0xbdcd1b56	-0.100149795
29	0x3bfa08f6	0.0076304628
30	0x3de63cea	0.11242087
31	0xbdab37a3	-0.08360221
32	0xbdb0dc63	-0.086357854
33	0x3d15c30b	0.03656296
34	0x3dcb45b8	0.09925407
35	0x3c711305	0.014714007
36	0xbe0f5c28	-0.13999999
37	0xbd8f3dd0	-0.06994212
38	0xbc2af664	-0.010434721
39	0xbdfae3a5	-0.12250451
40	0xbdac5996	-0.08415525
41	0x3d2952c6	0.041338705
42	0x3e0863d1	0.13319327
43	0x3d9ae9cc	0.075641245
44	0xbd0f86a9	-0.03504053
45	0xbd58fd16	-0.052975737
46	0xbc40deea	-0.011771897
47	0x3da62f83	0.08114531
48	0x3d902d06	0.070398375
49	0x3d2b3aed	0.041804243
50	0xbd73ea69	-0.059549723
51	0xbe0624b0	-0.13099933
52	0xbc733262	-0.014843555
53	0x3dd8b132	0.10580672
54	0x3c212fdc	0.009838071
55	0x3aa80117	0.0012817708
56	0x3d3df288	0.046373874
57	0xbdc7e26b	-0.09759983
58	0xbd167974	-0.03673692
59	0xbd85f5f9	-0.06541056
60	0xbca88aca	-0.020573992

net_layers.7.linear_1.bias f4 [61]
0	0x3c18e2be	0.009331403
1	0x3d62a375	0.055331666
2	0x3d45d599	0.048299406
3	0xbde32dd9	-0.11092729
4	0xbdccf5ca	-0.10007818
5	0xbd8fbec0	-0.070188046
6	0x3ddc6947	0.107622676
7	0x3ddba405	0.107246436
8	0x3d5dd9fd	0.054162968
9	0xbcc3e269	-0.023911672
10	0xbcb6dd84	-0.022322424
11	0xbe093a2d	-0.13401099
12	0x3db24c9a	0.08706017
13	0xbd8fabc4	-0.070151836
14	0xbd0e0070	-0.034668386
15	0x3da5f307	0.081029944
16	0xbdcc305e	-0.09970163
17	0x3d888256	0.066654846
18	0x3b8987a1	0.0041970764
19	0x3daae906	0.08345227
20	0xbcc90f52	-0.024543438
21	0x3c2acdcc	0.010425042
22	0x3c870b0f	0.016484765
23	0xbb10c769	-0.0022091514
24	0x3bcaa213	0.0061838715
25	0x3dd51d16	0.10405938
26	0x3d981867	0.074265294
27	0xbde6da87	-0.112721495
28	0x3d0054e9	0.031330977
29	0xbde73c6e	-0.11290823
30	0x3d8dfea6	0.06933336
31	0x3db1b7cf	0.08677637
32	0xbdf7a4e5	-0.12091998
33	0xbc93415d	-0.017975504
34	0xbd91f67f	-0.071270935
35	0x3dcb2267	0.09918671
36	0xbd6668df	-0.056252357
37	0xbdb9ee5c	-0.090786666
38	0x3ce390e9	0.02777906
39	0xbd26f98c	-0.04076533
40	0xbdcdce58	-0.100491226
41	0xbc34c2bb	-0.0110327555
42	0x3dde2dfc	0.108486146
43	0x3dec4b00	0.115377426
44	0xbd1d3139	-0.03837702
45	0xbda43f21	-0.080198534
46	0xbda81a24	-0.08208111
47	0x3d47446a	0.04864923
48	0xbd9c02a3	-0.076176904
49	0xbcf24b90	-0.029577047
50	0x3d7056a7	0.058676388
51	0xbdaf4833	-0.08558693
52	0x3d3b1437	0.045673575
53	0x3df04ef0	0.11733806
54	0xbdefe179	-0.11712927
55	0xbcc3e270	-0.023911685
56	0xbe06126e	-0.13092968
57	0xbdc1275c	-0.09431335
58	0x3d6c998a	0.057763614
59	0x3c592529	0.013253489
60	0xbd1be890	-0.038063586

net_layers.7.linear_2.bias f4 [61]
0	0x3d59f1fd	0.053209294
1	0x3ce23864	0.02761478
2	0xbd120ded	-0.035657812
3	0x3dc262c8	0.09491497
4	0xbd63612a	-0.055512585
5	0x3db04f72	0.08608903
6	0x3cd6b04b	0.02620711
7	0x3d94da1b	0.07268163
8	0x3bc3f8bf	0.0059805806
9	0x3df1d0d6	0.118074104
10	0xbd1f59b7	-0.038903918
11	0x3dd36f99	0.1032402
12	0x3d646d6d	0.05576842
13	0xbd63d3ba	-0.05562184
14	0xbdeff0aa	-0.11715825
15	0xbd7a0dfa	-0.061048485
16	0xbd113b68	-0.035457045
17	0xbd87100c	-0.065948576
18	0x3d8aa789	0.06770236
19	0x3dba92fa	0.09110065
20	0xbe005539	-0.1253251
21	0xbda545ab	-0.08069929
22	0xbdd859e4	-0.1056402
23	0xbd49740a	-0.04918293
24	0x3e014a15	0.12625916
25	0x3d332946	0.043740533
26	0x3c9ee48c	0.019396089
27	0xbb9231a3	-0.0044614836
28	0xbb8b168a	-0.00424463
29	0x3e1224cd	0.14271851
30	0x3d34a61b	0.044103723
31	0xbcb05f17	-0.021529717
32	0xbdf6159e	-0.12015842
33	0x3dc0baf0	0.094106555
34	0x3d522805	0.051307697
35	0x3da7d735	0.08195344
36	0xbd884ddb	-0.06655475
37	0xbcaae8db	-0.020862987
38	0xbda1c859	-0.078995414
39	0xbcf591d6	-0.029976767
40	0xbdbc040f	-0.091804616
41	0x3cdc0a97	0.026860518
42	0x3d006cc1	0.031353716
43	0xbdac12ee	-0.08402048
44	0x3d82c3cb	0.06385001
45	0xbd9f331b	-0.077734195
46	0xbde50e76	-0.11184399
47	0xbdee603a	-0.116394475
48	0xbd61b3e8	-0.055103213
49	0xbde10362	-0.10986973
50	0x3d46a5ea	0.04849807
51	0x3d2491b8	0.04017803
52	0x3cdb421e	0.026764926
53	0xbd6bdb8f	-0.057582434
54	0xbd0214c9	-0.031758104
55	0x3ce63fc8	0.028106585
56	0xbdda2f7f	-0.106535904
57	0x3c2485dc	0.01004168
58	0xbd9f8d63	-0.07790639
59	0xbd32f9a8	-0.043695122
60	0xbc97a589	-0.01851155

onnx::MatMul_147 f4 [3, 61]
0	0x3e58bca1	0.21165706
1	0x3eacd9a0	0.33759785
2	0xbe58ec42	-0.21183875
3	0x3d781c50	0.060573876
4	0xbd6d8b15	-0.057993967
5	0xbd279d41	-0.040921453
6	0x3de1f121	0.1103232
7	0xbe847012	-0.25866753
8	0xbe958fe9	-0.29211357
9	0x3df9bc9a	0.12194176
10	0x3cebcc49	0.028783934
11	0x3e811f59	0.2521923
12	0xbe5795c2	-0.21053222
13	0x3e8e1113	0.27747402
14	0x3ea0f000	0.31433105
15	0x3dfead82	0.12435438
16	0x3db3038c	0.08740911
17	0x3e7894ef	0.24275564
18	0x3cfee1a0	0.031113446
19	0xbdb9901c	-0.0906069
20	0xbe91c583	-0.28471002
21	0x3e207a4b	0.15671651
22	0xbe90989a	-0.28241426
23	0x3e4d4591	0.20046069
24	0xbea17dcb	-0.31541285
25	0x3e43a799	0.19106902
26	0xbe268e8d	-0.16265316
27	0xbcd12799	-0.025531577
28	0x3e588895	0.21145852
29	0xbe06f265	-0.13178404
30	0xbeaba8c6	-0.335272
31	0x3dd143b3	0.10217991
32	0x3bcabbee	0.0061869537
33	0x3e887f20	0.2665949
34	0xbd449228	-0.047990948
35	0xbe4bd91a	-0.19907036
36	0xbd8dc649	-0.069225855
37	0xbc772eff	-0.015086888
38	0xbe9fb069	-0.31189278
39	0x3dbfaab1	0.09358729
40	0xbdfed36c	-0.12442669
41	0xbcf6bbba	-0.030118812
42	0xbbd8b034	-0.006612802
43	0xbd494c00	-0.049144745
44	0xbd7b8788	-0.06140855
45	0x3d237494	0.0399061
46	0x3e82f069	0.25574043
47	0xbe9983a6	-0.29983252
48	0xbe2f2992	-0.17105702
49	0xbe0f49c4	-0.13992983
50	0xbe571e32	-0.21007612
51	0xbea09128	-0.31360745
52	0xbe100750	-0.1406529
53	0xbc403fc1	-0.01173395
54	0xbddb8f13	-0.107206486
55	0xbdbc5645	-0.09196142
56	0xbd41c566	-0.047307394
57	0x3e9ece8a	0.31016952
58	0x3bd3740e	0.006453044
59	0xbe3c0b9a	-0.183638
60	0x3e83e60f	0.25761458
61	0x3e46c304	0.1941033
62	0xbdf8a5c9	-0.12140996
63	0xbe15ac4d	-0.14616509
64	0xbd78d8ea	-0.06075374
65	0xbe9b30b9	-0.3031061
66	0x3db0de19	0.08636112
67	0xbca2dd9a	-0.019881058
68	0x3dbe5805	0.09294132
69	0x3ea4c8a2	0.3218432
70	0x3e467b56	0.19382986
71	0x3e9c9dd8	0.30589175
72	0x3c1794d5	0.009251793
73	0xbaa55214	-0.0012612962
74	0xbe09b072	-0.13446215
75	0xbe3ee711	-0.18642832
76	0xbeadd332	-0.33950192
77	0x3e611c0d	0.21983357
78	0xbdb78c8c	-0.08962354
79	0x3e86c2ff	0.26320645
80	0x3dff2efb	0.12460133
81	0xbe4c3c09	-0.19944777
82	0xbe706bde	-0.23478648
83	0x3c771c42	0.015082421
84	0x3eafb3aa	0.3431676
85	0x3d4d076a	0.0500559
86	0xbe7acd08	-0.24492276
87	0xba34ed1a	-0.0006901786
88	0x3e696858	0.2279371
89	0x3df84ea3	0.12124374
90	0xbe6b4398	-0.22975004
91	0xbe5a2c85	-0.21306045
92	0x3c8fcb5e	0.017553028
93	0x3cfe8a2c	0.031071745
94	0xbe682faa	-0.22674432
95	0x3e41789f	0.1889367
96	0x3e0c3b35	0.1369446
97	0x3df99f2d	0.121885635
98	0xbe04fca6	-0.12987003
99	0x3d28ed0e	0.041241698
100	0xbe8e41e1	-0.27784637
101	0x3e9d5cd7	0.30734894
102	0xbe76e181	-0.2410946
103	0xbc2d0a78	-0.010561578
104	0xbe21665e	-0.15761706
105	0x3da89a4e	0.08232556
106	0x3e270092	0.16308811
107	0x3d225547	0.039632108
108	0x3ea22bec	0.31674135
109	0xbe3afa33	-0.18259506
110	0xbeaeaee1	-0.34117797
111	0xbe14c6c6	-0.14528951
112	0xbe961d71	-0.29319337
113	0xbd648eb6	-0.055800162
114	0x3e9b928a	0.30385238
115	0xbd871207	-0.06595235
116	0x3d8e5d8e	0.06951438
117	0xbe7072e9	-0.23481335
118	0x3e7c6702	0.2464867
119	0x3e12fc47	0.14354049
120	0xbe84deee	-0.25951332
121	0x3c242d86	0.010020619
122	0x3e9a8480	0.30179214
123	0xbeacdbef	-0.33761546
124	0x3e198e99	0.14995803
125	0xbddeab76	-0.10872547
126	0xbdeb4758	-0.11488217
127	0x3d98dd37	0.074640684
128	0xbe4c8289	-0.1997167
129	0x3da66dd5	0.081264175
130	0xbe5f8ffa	-0.21832266
131	0xbdad6aae	-0.08467613
132	0xbd2be41c	-0.04196559
133	0xbe507791	-0.20358111
134	0xbdf6ea64	-0.12056425
135	0xbe8cf9ce	-0.27534336
136	0xbe243dd8	-0.16039217
137	0xbe986630	-0.29765463
138	0xbe6954c3	-0.2278624
139	0xbdb81e4a	-0.08990152
140	0x3ccb1db3	0.024794435
141	0x3e2f4059	0.1711439
142	0xbe0f6997	-0.14005123
143	0xbe43f642	-0.19136909
144	0x3e7d014c	0.24707526
145	0xbe862744	-0.26201832
146	0x3e6b8861	0.23001243
147	0xbe9ab1aa	-0.30213672
148	0xbe1f7749	-0.15572847
149	0xbea1b154	-0.31580603
150	0xbe26edf7	-0.16301714
151	0xbe8e803f	-0.2783222
152	0xbdae33b9	-0.08505959
153	0xbe253260	-0.16132498
154	0x3e8ff253	0.28114566
155	0xbe854f51	-0.26037076
156	0x3e90a105	0.28247848
157	0x3e5d5b75	0.2161692
158	0xbdf2fd7f	-0.11864757
159	0xbe715ca3	-0.23570494
160	0x3e6434f8	0.22285831
161	0xbe337303	-0.17524342
162	0xbe3c6229	-0.1839682
163	0x3e4a9cb5	0.19786341
164	0xbe05b730	-0.13058162
165	0xbe2def50	-0.16985822
166	0xbe5dc2b0	-0.21656299
167	0x3e2be435	0.16786273
168	0x3ea6e237	0.32594463
169	0xbea2eba6	-0.3182041
170	0xbdea3fd4	-0.114379555
171	0xbd587d87	-0.052854087
172	0x3e900bca	0.28133994
173	0xbdf5843b	-0.119881116
174	0xbd2ab591	-0.04167706
175	0x3dc2a703	0.09504511
176	0x3e9616c7	0.29314253
177	0x3e98b575	0.2982594
178	0xbd324e6b	-0.043531816
179	0x3e73cf6f	0.23809598
180	0xbcd6e5c2	-0.026232604
181	0xbda06951	-0.078325875
182	0xbe0e3ba3	-0.13889937

onnx::MatMul_148 f4 [61, 61]
0	0x3c217ab5	0.009855916
1	0xbb013019	-0.0019712506
2	0xbc489829	-0.012243309
3	0xbb2dd4ad	-0.002652447
4	0xbc6a0115	-0.014282485
5	0xb93a366c	-0.00017758616
6	0x3be0335e	0.006842061
7	0x3b9f4d0b	0.004861479
8	0x3c08b4dc	0.0083439015
9	0xba82c1cf	-0.0009975972
10	0xbbca238c	-0.0061687883
11	0x3ad30bb7	0.0016101514
12	0xbc5bad9f	-0.013408094
13	0xbb5cc10c	-0.00336844
14	0x3c2e9d84	0.010657672
15	0xba6ecda2	-0.0009109621
16	0x3bcbea2d	0.0062229843
17	0x3bd42817	0.0064745056
18	0xbb63db85	-0.0034768295
19	0xbbdbbc28	-0.0067057796
20	0xbb933684	-0.0044925828
21	0xbb68012b	-0.0035401087
22	0x3bcca167	0.0062448266
23	0xbbf556a6	-0.007487136
24	0x3a983079	0.0011611126
25	0xbc411c17	-0.011786482
26	0x3ac50fdb	0.0015034633
27	0xbb212113	-0.0024586364
28	0x3b1ce168	0.0023938064
29	0xbc4fac15	-0.012675305
30	0x3b98f307	0.004667643
31	0x3c79fd6a	0.0152581725
32	0xbc2e38b6	-0.010633638
33	0xbbddcc95	-0.006768773
34	0x3c595ee2	0.013267251
35	0x3abd66b2	0.0014450161
36	0xbc033b95	-0.008009811
37	0xbc0c4ea5	-0.008563672
38	0x3b87f115	0.0041486123
39	0xbb931147	-0.0044881436
40	0x3be50fb7	0.0069903987
41	0x3b2b9871	0.0026183391
42	0xbc4eec87	-0.012629635
43	0x3c0b71ac	0.008510988
44	0x3c339ea3	0.010963115
45	0xbbeb8565	-0.0071875327
46	0xbc0f4a9f	-0.008745818
47	0x3bf3d0ca	0.007440661
48	0x3b9f7231	0.0048659076
49	0xbb48282c	-0.0030541522
50	0x3c2c6784	0.010522727
51	0xbc3fad90	-0.011699095
52	0xbc073b5b	-0.008253898
53	0xbc3e167e	-0.011602042
54	0xbc1d2a4e	-0.009592606
55	0x3c7e6055	0.015525897
56	0xba5acb32	-0.00083463185
57	0xbb8fa3c3	-0.0043835356
58	0x3ac6c6fb	0.0015165502
59	0xbc86b031	-0.016441436
60	0xbb8db444	-0.004324468
61	0x3b9cc532	0.0047842497
62	0x368742cd	4.03109e-06
63	0xbb5dc89c	-0.0033841496
64	0x3ba9ef32	0.005185985
65	0xbbdd2124	-0.0067483354
66	0x3c13c546	0.009019202
67	0x39c070a3	0.00036705015
68	0xbb0a354f	-0.0021088903
69	0x3b3389a5	0.0027395275
70	0xba3364f9	-0.0006843354
71	0x3a0570a5	0.00050903327
72	0xbbb25ab3	-0.005442941
73	0x3af8a56b	0.0018970197
74	0xbb71db13	-0.003690426
75	0xba1e91c1	-0.00060489407
76	0xbbda5eee	-0.0066641485
77	0xbbdd5b2e	-0.006755254
78	0xbbfb20cb	-0.0076638213
79	0x3b15f8f4	0.0022883983
80	0x3bf7a5d0	0.007557608
81	0x3a74046a	0.0009308519
82	0x3b9cafb1	0.0047816862
83	0x3b4869c5	0.0030580622
84	0xbb9e2ad7	-0.0048268843
85	0xbc40d6e4	-0.011769984
86	0x3c9ced04	0.019155987
87	0xbbf858fa	-0.007578966
88	0x3b8c59e2	0.004283176
89	0xba28a1f4	-0.00064328243
90	0x3c434055	0.011917193
91	0xba568174	-0.0008182742
92	0x3b86c01c	0.0041122567
93	0x3c03a37e	0.008034585
94	0x3ad5c2bf	0.0016308649
95	0x3a167cfc	0.000574067
96	0x3b0abcf8	0.0021169763
97	0x3b816a0a	0.0039494084
98	0xbad430df	-0.0016188881
99	0xbb2c602a	-0.0026302435
100	0xbada90a5	-0.0016675188
101	0x3c192d21	0.0093491385
102	0x3b0b0356	0.0021211705
103	0x38db4efb	0.00010457445
104	0x3bf3abfb	0.007436273
105	0x3b67a635	0.003534687
106	0x38e30abc	0.00010826203
107	0x3bbfcd60	0.00585334
108	0xbb01ea5d	-0.001982353
109	0xbbde33fa	-0.0067810984
110	0x3c31982d	0.010839504
111	0xbb552553	-0.0032523468
112	0xbc27c259	-0.010239207
113	0x3b370e82	0.0027932231
114	0x3b8fb04f	0.0043850313
115	0xbc02d6d5	-0.00798579
116	0xbbabce9f	-0.005243137
117	0x3aa59bf0	0.0012634974
118	0x3b981869	0.004641582
119	0xbb8e22a8	-0.0043376274
120	0xba62cce3	-0.00086517463
121	0xbbfe745f	-0.0077653374
122	0x3b2d6bde	0.0026462
123	0xbc245a7a	-0.010031337
124	0x3b9ca73b	0.0047806776
125	0xbb89416b	-0.0041887066
126	0x3c70ebcd	0.014704657
127	0xbada1e1d	-0.0016641055
128	0x3aa9640d	0.0012923494
129	0x3b4c22e2	0.0031148721
130	0x3c790239	0.015198284
131	0xbc03f450	-0.008053854
132	0x3b52f7ad	0.0032191083
133	0xbbe74bb7	-0.0070585865
134	0xbc1ec99a	-0.00969162
135	0xbb7a872a	-0.0038227537
136	0x3c15c8df	0.00914213
137	0xbb7e3e84	-0.0038794586
138	0x3c083690	0.00831379
139	0x3c3891b4	0.011265207
140	0xbbccfdc1	-0.0062558358
141	0x3b08133a	0.0020763413
142	0x3bba29fa	0.0056812735
143	0x3c1fc2b0	0.009751007
144	0xba8bbccb	-0.0010661123
145	0x3bbddcb5	0.0057941326
146	0xbc0d9b1f	-0.008642941
147	0xbc368059	-0.011138999
148	0x3b7088d6	0.0036702654
149	0xba7444d4	-0.00093181175
150	0x3b25b98c	0.0025287597
151	0x39b93c87	0.00035331046
152	0xbc035308	-0.008015402
153	0xbb9f6920	-0.004864827
154	0x3b7451f7	0.00372803
155	0xbae26835	-0.0017273488
156	0xbc1bf20e	-0.00951816
157	0xba87db95	-0.0010365123
158	0x3b238df3	0.0024956434
159	0x3b1065d2	0.0022033346
160	0x3b5ea5f8	0.0033973437
161	0x39a9a567	0.00032357426
162	0x3a003119	0.00048901286
163	0x3c1cd1a2	0.009571465
164	0xbb1dbc21	-0.0024068432
165	0xba8b174a	-0.0010611799
166	0xbafd3a75	-0.001931979
167	0x3c7109f0	0.014711842
168	0xbc19ff0e	-0.009399189
169	0x3bb6ebad	0.005582294
170	0xbbc870ab	-0.0061169467
171	0x3c0f23bc	0.008736547
172	0x3b31d6f2	0.0027136174
173	0xbb37653a	-0.002798392
174	0x3bba13d5	0.0056786337
175	0xbac0636c	-0.0014678068
176	0xbab5977b	-0.0013854349
177	0x390bcbe3	0.00013332027
178	0x3ba63c66	0.005073118
179	0x3c298ea0	0.010348946
180	0x3b5863f9	0.0033018573
181	0x3c0eb5a9	0.008710303
182	0x3c0f2f0c	0.008739244
183	0x39b916f8	0.00035303063
184	0xbc21832f	-0.009857937
185	0x3bb79606	0.005602601
186	0x3c1e3cde	0.009658067
187	0xbc21f355	-0.009884675
188	0xbb03153e	-0.0020001675
189	0xbbbc3482	-0.005743564
190	0x3c1ed7ea	0.009695033
191	0x3c0bd077	0.008533589
192	0x3a074156	0.0005159577
193	0x3b25117c	0.0025187423
194	0xbbfdcacd	-0.007745123
195	0xbac45fd7	-0.0014982176
196	0x3b1178b3	0.0022197186
197	0xbbcc5fa5	-0.0062369877
198	0x3b89073f	0.004181772
199	0xbb5a4b1e	-0.0033308933
200	0xbb0bf1c6	-0.0021353825
201	0xba6d7785	-0.00090586423
202	0xbb6f7ed3	-0.00365441
203	0xbbc89990	-0.0061218217
204	0x3c08a285	0.008339529
205	0xbbbfb35b	-0.0058502383
206	0x3b72f7cf	0.0037073975
207	0xbbf88cd5	-0.007585148
208	0xbc2758d3	-0.010214048
209	0x3bbbafbe	0.005727737
210	0xbb9d0e99	-0.004793
211	0x3a9014e4	0.0010992554
212	0xbc545935	-0.012960722
213	0xbb827dc8	-0.0039822794
214	0x3b809944	0.0039245207
215	0xbc353286	-0.011059409
216	0x39a0f02a	0.00030696514
217	0xbba8ca43	-0.0051510646
218	0xbb235bf6	-0.002492664
219	0x3b2e98db	0.0026641402
220	0x3b8486de	0.0040443977
221	0xbbc987e6	-0.0061502336
222	0x3c52d12c	0.012867253
223	0xbc43af3d	-0.0119436355
224	0xbb60af93	-0.0034284338
225	0x3a8fc2d0	0.0010968093
226	0xbbdff711	-0.0068348725
227	0xbb7ab7e2	-0.0038256575
228	0x3bff565e	0.007792278
229	0xbb259dbb	-0.0025271017
230	0x3bcbe5fb	0.006222484
231	0x3b345005	0.0027513516
232	0x3b5ad5e1	0.0033391642
233	0xbc243467	-0.010022259
234	0x3b61526b	0.00343814
235	0xbc11e4f5	-0.008904685
236	0xbb47f328	-0.0030509923
237	0x3bfd1880	0.007723868
238	0xbb3e478a	-0.002903434
239	0x3b8dd50c	0.0043283757
240	0x39ec447d	0.00045064455
241	0xbc415a07	-0.011801249
242	0xbabab998	-0.0014245985
243	0xba99e053	-0.0011739827
244	0x3a7e4a6a	0.00097004196
245	0x3aa446d8	0.001253332
246	0xbbd40abe	-0.006471007
247	0x3c102828	0.0087986365
248	0xbbf1d4a9	-0.0073800874
249	0x3af7ded2	0.001891101
250	0xbc1dd266	-0.009632682
251	0x3c339818	0.010961555
252	0xbaf2f379	-0.0018535695
253	0xbb2c4de8	-0.0026291553
254	0x39cfcc30	0.00039634248
255	0x3bf50a06	0.0074780015

onnx::MatMul_149 f4 [61, 61]
0	0xb8d7d09e	-0.00010290857
1	0xba9c0fd4	-0.0011906573
2	0x3afee811	0.0019447823
3	0x3b5ae1b2	0.0033398685
4	0xbbb12e9c	-0.0054071676
5	0x3bed4c75	0.0072417804
6	0xbc232c13	-0.009959239
7	0x3c09aba3	0.008402738
8	0x3c283d67	0.010268546
9	0xbbcca2d7	-0.006244998
10	0xbbe99165	-0.007127928
11	0x3c3133f3	0.010815608
12	0xb95efe15	-0.00021266223
13	0xbbd0f4e3	-0.006376849
14	0x3bd364f2	0.0064512426
15	0x3c60623f	0.013695299
16	0x3a30bad7	0.00067417085
17	0xba576536	-0.0008216681
18	0x3c041bef	0.0080633005
19	0x3afd9ba3	0.0019348752
20	0xbbfadfbe	-0.0076560667
21	0xbc000702	-0.007814171
22	0x3ab7e4ec	0.0014030016
23	0x3af04c49	0.0018333282
24	0x3bfeabc3	0.0077719404
25	0x3a8d57e3	0.0010783639
26	0xbc2d3bbe	-0.010573326
27	0xbb5e2729	-0.0033897853
28	0xbbbf3c1f	-0.0058360244
29	0x3c0259b9	0.007955962
30	0x3b9aeb06	0.004727724
31	0x3be2c6fe	0.0069206944
32	0x3be5ecbd	0.007016747
33	0xbb9faa9b	-0.0048726327
34	0x3b10bf72	0.0022086767
35	0xbafad75e	-0.0019137671
36	0xbb961241	-0.0045798128
37	0xbc063077	-0.008190266
38	0xbbc70a31	-0.006074213
39	0xbadb3bed	-0.0016726233
40	0x3bc114f8	0.0058923922
41	0x3c40637e	0.011742471
42	0xbaf62718	-0.0018779961
43	0xbc14f68e	-0.009091986
44	0xbb68fa9c	-0.0035549765
45	0x3b4a492f	0.0030866375
46	0xbb0a84dc	-0.002113632
47	0xbbff1137	-0.0077840346
48	0xbbbec321	-0.005821601
49	0x3b288e53	0.0025719597
50	0x3c083c29	0.008315125
51	0x3a3a9539	0.0007117573
52	0xbc107566	-0.0088170525
53	0x39fb7b0e	0.00047966134
54	0x398f55f8	0.00027339137
55	0xbb8f1f5c	-0.004367752
56	0x39b7b8af	0.0003504208
57	0xbb7efe2f	-0.003890883
58	0x3c368cc6	0.011141961
59	0x3bc9b3c5	0.0061554634
60	0xbb9242ce	-0.00446353
61	0xbbfc9bc0	-0.0077089965
62	0xbc140e3d	-0.009036598
63	0xbbc3234a	-0.0059551345
64	0x3b952b6b	0.004552295
65	0x3c22e7d5	0.009942968
66	0xbb2a6461	-0.0025999772
67	0xbbe141a2	-0.006874279
68	0xbc5c5eac	-0.013450306
69	0xbb6522cd	-0.003496337
70	0x3bdca141	0.00673309
71	0x3c56bdc4	0.013106767
72	0xbc75354a	-0.014966318
73	0xba8ed296	-0.00108965
74	0xbb871792	-0.004122683
75	0x3b67dbbe	0.003537878
76	0xbc32e98f	-0.0109199425
77	0xbc6a941c	-0.014317539
78	0xb9d906bc	-0.00041394483
79	0xbc15a909	-0.009134539
80	0xbb7e969f	-0.0038847101
81	0x3b2d90f7	0.002648411
82	0xbc3f2540	-0.011666596
83	0x3be26a9b	0.006909681
84	0xbbafff3d	-0.005371003
85	0x3c4dd462	0.012562843
86	0x37d0281d	2.4814211e-05
87	0x3c8ffe3a	0.01757728
88	0xbb1906dd	-0.0023350038
89	0xbc538802	-0.012910845
90	0x3b67a12a	0.0035343864
91	0x3b19ac65	0.0023448702
92	0x3b36fbcb	0.0027921076
93	0x3c78322c	0.015148681
94	0x3bab64c5	0.0052305185
95	0x3b84cc26	0.0040526567
96	0xbb7302a3	-0.003708043
97	0x3c6c0a1a	0.014406705
98	0x3c4ad8dc	0.012380805
99	0x3aacf668	0.0013195993
100	0xbc2da60a	-0.010598669
101	0xbb903f8c	-0.0044021066
102	0xbbb59d04	-0.0055423994
103	0xbbf82c93	-0.007573673
104	0x3be8adc4	0.0071007926
105	0x3c35952e	0.0110829305
106	0x3b9435ee	0.0045230305
107	0xbbab93c1	-0.0052361195
108	0xbbb5c478	-0.0055471025
109	0xbbd655b1	-0.006540977
110	0xbb57f882	-0.0032954519
111	0x3c0136d9	0.007886612
112	0x3bca3bb9	0.0061716703
113	0x3991989e	0.00027770264
114	0x3a504e55	0.00079462427
115	0xba75c355	-0.0009375115
116	0x3c41ca18	0.011827968
117	0xbc31ec0a	-0.010859499
118	0x3ba84d14	0.0051361416
119	0xbb87066f	-0.00412064
120	0xbab337b0	-0.0013673212
121	0x3bb48376	0.0055088354
122	0x3bd6d391	0.0065559824
123	0x3b522b38	0.0032069217
124	0xbbc5d745	-0.006037625
125	0xbc16b0a8	-0.009197392
126	0xbc18d7c7	-0.009328789
127	0x3b2a858b	0.002601954
128	0x3b59da1a	0.003324157
129	0x3a2ddbb6	0.0006632166
130	0xbc0f3682	-0.008741023
131	0x3ba5cdc6	0.0050599305
132	0xba90d816	-0.0011050727
133	0xbc9275ae	-0.01787838
134	0x3c06a812	0.008218782
135	0xbbb25e74	-0.0054433886
136	0x3a9c5f90	0.0011930335
137	0x3be5bfdc	0.007011397
138	0x3ab253c4	0.0013605286
139	0xbb8ab4ec	-0.0042329933
140	0xbc7d35fd	-0.015454766
141	0x3c59aed1	0.013286308
142	0x3a97cc59	0.0011581286
143	0x397b813e	0.00023985372
144	0xbc56909a	-0.013095999
145	0x3be56355	0.0070003667
146	0x3bf14740	0.00736323
147	0xba61fb0b	-0.0008620477
148	0x3b53e7d0	0.0032334216
149	0x3c0e0132	0.008667277
150	0xbc4ab3d2	-0.012371974
151	0x3b91cf3e	0.004449754
152	0x3a63ff15	0.0008697373
153	0xbb83ba01	-0.004019976
154	0x3a861962	0.0010230953
155	0x3b76eedf	0.0037679
156	0xbc5a8da6	-0.013339436
157	0x3caa2cdc	0.020773344
158	0xb9e989f3	-0.00044544003
159	0xbbedf00e	-0.0072612828
160	0xbbc1a0a7	-0.005909044
161	0xbbfbf0ae	-0.0076886034
162	0x3baaea9d	0.0052159564
163	0xb9f34281	-0.0004639812
164	0x3b84aee4	0.004049169
165	0x3b3d4105	0.0028877866
166	0xbc006ba6	-0.007838165
167	0xbba9ff2c	-0.0051878896
168	0xbc14f716	-0.009092113
169	0xbb27d440	-0.0025608689
170	0xbb3d21f7	-0.0028859356
171	0xbb2e78f0	-0.0026622377
172	0x3c72c485	0.014817362
173	0xbc29d16f	-0.010364874
174	0x3c2a44a3	0.010392341
175	0xbc317b00	-0.010832548
176	0x3a99e8e5	0.0011742382
177	0xbc2f9cb8	-0.010718517
178	0x3bad457b	0.0052878237
179	0xbc012f97	-0.007884881
180	0xbb5a3fa8	-0.0033302102
181	0xbbc28807	-0.005936626
182	0x3b9bd453	0.0047555356
183	0xbbddbc22	-0.006766812
184	0xbc18e743	-0.009332481
185	0x3a735edb	0.0009283849
186	0xbc140311	-0.009033934
187	0xbbb1f860	-0.00543122
188	0xbbc14ce6	-0.0058990596
189	0xbb67e0c5	-0.0035381776
190	0xba794918	-0.0009509488
191	0xbac1e07b	-0.0014791632
192	0x3be14ca0	0.0068755895
193	0xbbd0d5d8	-0.0063731484
194	0x3ae30bd6	0.0017322253
195	0x3bdf1be7	0.006808746
196	0xba179f6b	-0.0005783948
197	0x3beda6ba	0.0072525414
198	0xbb6fbe1d	-0.0036581822
199	0x3bfc7bc9	0.007705186
200	0xbc32f0c7	-0.010921664
201	0x3c629be8	0.013831116
202	0x3ba133b3	0.004919493
203	0xbb9b037c	-0.00473064
204	0x3aa70eaa	0.0012745459
205	0x3bd3f41b	0.0064683086
206	0x3b495ce6	0.0030725538
207	0xbb2e4943	-0.002659396
208	0x3bfe15db	0.00775407
209	0x39e4f675	0.00043671174
210	0xbb8c7141	-0.004285962
211	0xbc0a9fa5	-0.008460914
212	0x39e74bc2	0.00044116197
213	0xbaa14471	-0.0012303722
214	0xbade9806	-0.0016982562
215	0x3bc169aa	0.0059024887
216	0x3c540968	0.012941696
217	0x3bd0af47	0.006368551
218	0xba52004b	-0.0008010908
219	0xbc2d3bb4	-0.010573316
220	0x3b3883a3	0.0028154633
221	0xbbb9696e	-0.00565832
222	0x3c2e442e	0.0106363725
223	0xbbb89740	-0.005633265
224	0xbc45e621	-0.012078793
225	0xbb9ddc99	-0.004817557
226	0xbbe850bc	-0.0070897024
227	0x3b2f1347	0.002671437
228	0xbb9eb180	-0.004842937
229	0xba3a2b47	-0.0007101786
230	0x3c4035fb	0.01173162
231	0x3c06cbec	0.00822733
232	0x3bf73d09	0.0075451178
233	0x3af50ac4	0.0018695225
234	0x3b8702e7	0.004120219
235	0x3bb1714c	0.0054151174
236	0x3baeceb7	0.005334701
237	0xbc83bb78	-0.016080603
238	0x3c132934	0.008981992
239	0xbbb8730c	-0.005628949
240	0xbc842225	-0.016129563
241	0x3b193f35	0.0023383622
242	0xbafbd541	-0.0019213335
243	0xba231932	-0.0006221711
244	0x3c3f92d4	0.011692721
245	0xbc118a17	-0.008883021
246	0x3a09bf4e	0.0005254642
247	0x3c185743	0.009298149
248	0x3b8c9aa8	0.0042908974
249	0xbb9d6bef	-0.0048041265
250	0x3bf49360	0.0074638575
251	0xbc3fb217	-0.011700175
252	0xbbe8a618	-0.007099878
253	0xbc30237c	-0.010750648
254	0xbb323e17	-0.0027197653
255	0xbbe09ce2	-0.0068546394

onnx::MatMul_150 f4 [61, 61]
0	0xbc3bcf44	-0.01146299
1	0x3c33e458	0.010979734
2	0xbb76f98f	-0.003768537
3	0x3b60c9a2	0.003429987
4	0x3a3db453	0.0007236648
5	0xbaccc078	-0.0015621325
6	0x3bf802e5	0.0075687044
7	0xbb27e555	-0.002561887
8	0x395e3074	0.0002118962
9	0xbb592f0d	-0.0033139617
10	0x3b8a4f31	0.004220866
11	0x3b114506	0.0022166385
12	0x3c1a94af	0.009434863
13	0x3c34bbd3	0.011031109
14	0xbc388ed7	-0.011264524
15	0xbc519693	-0.012792247
16	0xb81df6ca	-3.7661557e-05
17	0x3b68a651	0.0035499523
18	0xbc5aba2c	-0.013350051
19	0x3c18a2de	0.009316174
20	0x3b5aea9c	0.0033403998
21	0xbc3fb8c1	-0.011701764
22	0x3a953ffe	0.0011386869
23	0xbc0f1c3e	-0.008734761
24	0x3bcedc86	0.0063129095
25	0x3c138e4e	0.009006096
26	0xbc81f72c	-0.015864931
27	0xbc5c2eee	-0.013438923
28	0xbc3a974c	-0.011388611
29	0x3c8c024b	0.017090937
30	0x3b776d25	0.0037754264
31	0xba276390	-0.00063853804
32	0xbb9933e0	-0.0046753734
33	0xbc4171b7	-0.011806897
34	0xbb27ae82	-0.0025586192
35	0xbba04f01	-0.0048922305
36	0x3b07f89d	0.002074755
37	0x3b84d359	0.004053515
38	0xbb67804a	-0.003532427
39	0x3be9deba	0.007137147
40	0x3c249f13	0.010047692
41	0xbc3eab69	-0.011637547
42	0x3c6642c6	0.014054006
43	0xbc5551b1	-0.013019965
44	0xbb907758	-0.004408758
45	0xbc1e4c5f	-0.009661763
46	0x3c315127	0.010822571
47	0x3b36b1a9	0.002787689
48	0x3ad044d2	0.0015889651
49	0x38ee978f	0.00011376954
50	0x3aabf488	0.0013119141
51	0x3c12c0e9	0.008957126
52	0xbc2c14d9	-0.010503017
53	0x3b8c9a89	0.004290883
54	0x3c4b4c83	0.0124083785
55	0xbc3e66c1	-0.011621178
56	0xbc46ad20	-0.012126237
57	0x3b8deb9c	0.0043310653
58	0xbc4c3192	-0.01246299
59	0xbada249b	-0.0016642989
60	0xbc871573	-0.01648972
61	0xb9358ad3	-0.00017313221
62	0x3c77ff86	0.015136605
63	0xbb678fa6	-0.0035333424
64	0xbb40b829	-0.0029406643
65	0xbae26c99	-0.0017274796
66	0xbbfac960	-0.0076534003
67	0x3ae9323f	0.0017791464
68	0x3b994477	0.004677351
69	0x3cbfb552	0.02340189
70	0xbc688e79	-0.014194124
71	0x3c7170b5	0.014736344
72	0xbbd2e87a	-0.006436405
73	0xbac1fd3c	-0.0014800201
74	0x39c46452	0.00037458778
75	0x3b031390	0.0020000674
76	0x3baff596	0.0053698523
77	0xbb29d18e	-0.0025912258
78	0x3c41aa8f	0.0118204495
79	0xb9148289	-0.00014163008
80	0xbbed995e	-0.007250949
81	0xbac0e430	-0.0014716443
82	0x3b03e194	0.0020123469
83	0x3bca24d5	0.0061689415
84	0x3a0a8f37	0.0005285623
85	0x3be9c310	0.007133849
86	0x3b4f3674	0.003161815
87	0xbc2d3c8e	-0.010573519
88	0xbb6662f5	-0.0035154198
89	0x3b5a91db	0.0033351097
90	0xbbe8f339	-0.0071090725
91	0xb9cbd95d	-0.00038881126
92	0x3be3a391	0.006946989
93	0xbbf4dd5c	-0.007472677
94	0x38fcf893	0.00012062597
95	0x3bc5ceb6	0.0060366048
96	0xbabee05c	-0.0014562714
97	0xb9e10a17	-0.00042922862
98	0x3bd486fd	0.0064858184
99	0x3c014275	0.00788938
100	0x3bc519ab	0.0060150228
101	0xbc185138	-0.009296708
102	0x3c2c2d27	0.010508812
103	0x3bdd096c	0.006745508
104	0xbad9d231	-0.0016618428
105	0x3c56f227	0.013119257
106	0x3c1c5414	0.00954153
107	0xbc061d95	-0.008185764
108	0xbad73cfd	-0.0016421374
109	0xbc513aa0	-0.012770325
110	0x3c5dfa47	0.01354844
111	0x3a4fde67	0.0007929564
112	0x3be31f29	0.006931205
113	0x3c1ce83f	0.009576856
114	0xbc76a1c7	-0.015053219
115	0xbc27cdda	-0.01024195
116	0xbb1e3524	-0.002414056
117	0x3b89e53c	0.004208235
118	0xbb6a35d4	-0.003573765
119	0xbc2c01ab	-0.010498445
120	0xbbb42844	-0.005497964
121	0x3b2ca500	0.0026343465
122	0x3c25bec0	0.010116279
123	0x3bce510d	0.006296283
124	0x3bcc31e4	0.0062315334
125	0x3be67f06	0.0070341853
126	0x3c41f7d2	0.01183887
127	0xbb7e7b37	-0.0038830766
128	0xbc21be95	-0.009872098
129	0x3c640161	0.013916344
130	0xbb1ddd59	-0.0024088232
131	0x3c0151fc	0.007893082
132	0x3b35d0cf	0.0027742868
133	0xbb8b3e92	-0.0042494023
134	0x3a790ae0	0.00095002167
135	0x3bc22973	0.0059253513
136	0xbb9081ba	-0.004409996
137	0x3b538175	0.0032273207
138	0x3ba93f45	0.005165013
139	0x39a4dc52	0.0003144467
140	0xbc01e41f	-0.007927923
141	0x3c055d69	0.0081399465
142	0xba80302e	-0.0009779984
143	0x37f1e463	2.883579e-05
144	0xbb622365	-0.003450596
145	0x39e55cee	0.00043747522
146	0xbc2082e0	-0.009796828
147	0x3c66c376	0.014084687
148	0x3baca74a	0.005268966
149	0xbb519196	-0.0031977645
150	0x3be8062a	0.007080813
151	0xba12d38f	-0.00056009827
152	0x3c570d73	0.013125765
153	0x3b4e0749	0.0031437448
154	0xbbe2555e	-0.006907149
155	0x3bc6199b	0.006045533
156	0xbc08f015	-0.008358021
157	0x3c230c98	0.009951733
158	0x3b77a718	0.0037788805
159	0xbc3e0360	-0.011597484
160	0xbc248efb	-0.010043855
161	0x3abc41e8	0.0014362903
162	0xbc1f5aa8	-0.009726204
163	0x3ad96e89	0.0016588728
164	0x3b4de250	0.003141541
165	0xbc2b8f40	-0.010471165
166	0xbc826835	-0.01591883
167	0xbc2cc928	-0.010546006
168	0x3c1cc5c5	0.009568636
169	0xbb590c52	-0.0033118916
170	0xbb3cbed8	-0.0028800275
171	0x3c2e3cc7	0.010634608
172	0x3c28e8a8	0.010309376
173	0x3baf98b4	0.00535878
174	0xbbd4fb58	-0.006499689
175	0xbabd141a	-0.0014425546
176	0x3c799a94	0.015234608
177	0xbc17ab6b	-0.009257178
178	0x3c281b02	0.010260345
179	0x3c333cb4	0.010939766
180	0x3ba3a64d	0.00499419
181	0xbc007e01	-0.007842542
182	0x3c854c6b	0.01627179
183	0x3bca448f	0.0061727236
184	0x3be4936f	0.0069755833
185	0xbbf0852f	-0.0073400955
186	0x3af29d64	0.0018510041
187	0xbca0ec33	-0.019643879
188	0xbc114c64	-0.008868311
189	0x3c5e5988	0.013571151
190	0xbc59d757	-0.01329597
191	0x3c347956	0.011015257
192	0xbbf11189	-0.0073568267
193	0xbb9f97d4	-0.0048703942
194	0xbc5f759b	-0.013638879
195	0xbc70abe4	-0.014689419
196	0xbbc1c9e6	-0.0059139607
197	0xbbf66f98	-0.007520627
198	0x3b531139	0.003220631
199	0x3bcb4faa	0.006204565
200	0x3929e6de	0.000162031
201	0x3bb5ffe6	0.005554187
202	0x3a9b3c30	0.0011843499
203	0xbba2e4d6	-0.004971127
204	0xba763d5e	-0.00093932997
205	0x3c802708	0.015643612
206	0xba62f2ec	-0.0008657414
207	0xbb708683	-0.003670127
208	0xbc453cf5	-0.012038459
209	0x3a46bcf7	0.00075812585
210	0xb94a5c8a	-0.00019298695
211	0xbb9cc192	-0.0047838176
212	0x3bffb1a6	0.0078031598
213	0x3c3131ca	0.010815093
214	0xbbe83c1d	-0.007087244
215	0xbbe278f8	-0.0069113933
216	0x3c1fee67	0.009761429
217	0x3c2e9cdb	0.010657514
218	0x3bd0198e	0.0063507026
219	0xbb512d13	-0.0031917735
220	0xbc558e22	-0.013034375
221	0xbbf5e723	-0.0075043603
222	0xbb070cb1	-0.002060693
223	0x3a0afbdf	0.0005301814
224	0x3c214c35	0.009844829
225	0x3a4bdb03	0.0007776471
226	0xbbf819d8	-0.00757144
227	0xb95beb4e	-0.00020973125
228	0x3b032801	0.0020012858
229	0x3c720dbc	0.014773782
230	0xbba011f8	-0.0048849545
231	0x3c0fe4b8	0.008782558
232	0xba89b26f	-0.0010505448
233	0x3c5b12dd	0.013371197
234	0xbab98655	-0.0014154414
235	0xbc319eda	-0.010841096
236	0xbbe81d42	-0.007083566
237	0xbc3afa22	-0.011412175
238	0x3c572a90	0.013132706
239	0xbb863b46	-0.0040964214
240	0x3c8b3690	0.01699379
241	0x3c758820	0.014986068
242	0xba12823e	-0.00055888656
243	0x3b99617d	0.004680811
244	0x3acbfd8c	0.0015563234
245	0xbc205c9b	-0.009787704
246	0x3c76b4c3	0.015057745
247	0xbbafac9c	-0.005361153
248	0x3c0d043b	0.008606966
249	0x3b1889a2	0.0023275395
250	0x3a89b9de	0.0010507663
251	0xbb7a36c7	-0.0038179622
252	0x3b45cce0	0.003018193
253	0xbc31cea2	-0.010852488
254	0xbbfa4530	-0.0076376423
255	0xbbe82d5b	-0.007085485
